packages/subject-detection/assets/face_detection_yunet_2023mar.onnx (onnx, 232589 bytes, 96 tensors)

420 f4 [16, 3, 3, 3]
000000 2f 75 9f 3a fc ee 08 ba 96 f4 79 ba 26 a4 d2 3a
       0.0012165661 -0.00052236 -0.00095350423 0.0016070649
000010 6a e6 83 ba 37 74 e2 ba 92 67 32 3a a6 25 29 ba
       -0.0010063176 -0.0017277066 0.00068055943 -0.00064524484
000020 8d 2e 01 3b e0 59 1c 3b f8 6e 33 ba be 6c 0d bb
       0.0019711584 0.002385728 -0.0006844844 -0.0021579708
000030 1b 56 37 3b 26 0b af ba 67 78 56 bb 15 d0 da 3a
       0.0027974907 -0.0013354763 -0.0032725574 0.0016694093
000040 9b 4e 80 ba 60 72 2a 3a 26 ca 0d 3b 5e e4 40 ba
       -0.0009789051 0.00065020286 0.0021635382 -0.0007358248
000050 81 14 03 bb 37 81 23 3b 1d b5 b0 ba 6a 73 3a bb
       -0.0020001235 0.0024948844 -0.001348171 -0.002845014
000060 07 60 e3 3a bc ed 34 ba ce aa ab 3a e8 14 58 ba
       0.0017347344 -0.000690188 0.0013097168 -0.00082428614
000070 8a 7a 5b ba 38 d4 02 ba 92 eb a6 b9 8b 6c 6f ba
       -0.0008372447 -0.00049907295 -0.000318375 -0.00091333006
000080 c8 f0 5b b9 a0 97 48 ba b7 08 dc ba 51 9a 0f ba
       -0.00020975166 -0.00076519884 -0.0016787265 -0.0005478012
000090 c5 8e ae b9 1c 18 a0 b9 a5 71 3e b9 4f 80 5f 39
       -0.00033294238 -0.0003053554 -0.00018162148 0.00021314736
0000a0 bd 01 b5 b9 68 db 49 39 ff ce 1c ba 35 27 c0 ba
       -0.00034524305 0.00019250589 -0.00059817726 -0.0014660122
0000b0 fb ac ee b9 af eb 4e 3a 24 d6 44 3a 39 be 2a 3a
       -0.00045523778 0.0007893396 0.0007508716 0.0006513331
0000c0 02 eb dc 3a 44 29 8c 3a 51 6d b4 3a f2 5c 60 3a
       0.0016854706 0.001069345 0.0013765489 0.0008558772
0000d0 3c ef fb b8 9c 20 2e 3a a5 d8 8b 39 f5 4b 7b 3a
       -0.000120131735 0.00066424324 0.0002667356 0.00095862086
0000e0 1e 05 1c 3a 0f 9e 19 3a 37 c2 a0 3a 72 c7 56 3a
       0.000595169 0.00058600394 0.0012264912 0.0008193172
0000f0 6b 7f 1e 3a 64 cb 5b 3a d4 f5 14 3a 9d f8 53 39
       0.00060462084 0.00083844946 0.0005682383 0.00020215144
000100 8a 0f 42 3a 0b c3 d8 39 da 58 c1 39 d9 9f 5e 3a
       0.0007402828 0.0004134405 0.00036878028 0.0008492447
000110 8c e9 fc 39 ff 00 07 3a 5e b2 1a 3a 53 53 bd 39
       0.00048239192 0.000514999 0.00059012126 0.0003611097
000120 df 66 a9 ba 2d 2d 7c ba 02 25 a0 ba 34 19 a7 ba
       -0.0012924335 -0.0009619769 -0.001221806 -0.00127486
000130 a3 2f 84 ba 02 3c ac ba 05 f9 94 ba 35 7c a6 ba
       -0.0010084998 -0.0013140442 -0.0011365718 -0.0012701812
000140 5b 1e bd ba 69 49 10 37 6e a5 de 39 db 65 4b 3a
       -0.0014428602 8.600161e-06 0.00042466394 0.0007759013
000150 cb b3 1a 3a 67 b1 67 ba 62 6f ef ba 66 a0 a5 3a
       0.0005901425 -0.00088383857 -0.0018267448 0.0012636303
000160 ae 8f 06 3a 01 a5 68 ba ef 44 29 ba a7 79 3d b9
       0.0005133104 -0.0008874685 -0.000645711 -0.00018069764
000170 92 91 1d 37 2b c1 87 b6 fe 2e c7 ba 28 b1 31 bb
       9.3918225e-06 -4.0458012e-06 -0.00151965 -0.002711365
000180 6e cb f0 39 1b 6d 73 b9 30 65 f4 ba 4b 9d c2 b9
       0.00045927934 -0.00023214931 -0.0018645879 -0.00037119756
000190 7c ab 66 3a 94 c4 a7 3a 29 a8 28 b8 4c 90 31 ba
       0.0008799357 0.0012799674 -4.0210933e-05 -0.0006773516
0001a0 d0 53 c2 ba e5 a8 47 3a ea d9 79 3a ca 34 51 b9
       -0.0014826003 0.0007616415 0.0009531068 -0.00019951459
0001b0 e8 92 c5 ba a4 36 a6 ba 4f 3c 15 ba 2f 8e 04 bb
       -0.0015073689 -0.0012681079 -0.00056928856 -0.002022635
0001c0 a8 15 16 bb c9 1d 27 bb f5 a0 72 ba 0f e0 38 b9
       -0.0022901092 -0.002549993 -0.0009255552 -0.00017631076
0001d0 7f b6 81 ba 11 cb ab 3a 5e 76 ad 3a 9a 56 e8 3a
       -0.0009896307 0.0013106783 0.0013234129 0.0017726005
0001e0 a3 f7 5c 3a 20 05 ca 39 40 5b ed b8 90 ea 18 3b
       0.0008429235 0.0003853226 -0.00011318037 0.002333317
0001f0 98 57 46 3b d8 96 06 3b 4f 76 51 b9 b3 00 a2 38
       0.0030264612 0.0020536687 -0.00019975867 7.724892e-05
000200 bc 81 18 3a d2 56 2f ba 23 6d 6a ba 4a e8 b8 ba
       0.0005817672 -0.00066886574 -0.0008942654 -0.0014107313
000210 c7 55 a5 39 e0 87 9d 3a e7 2b 2e 39 78 17 b9 3a
       0.00031535162 0.0012018643 0.00016610288 0.0014121374
000220 b5 e7 64 3b 2d 9e 46 3b 50 95 bb ba 18 09 c5 ba
       0.0034928147 0.0030306682 -0.0014311466 -0.0015032617
000230 de 13 cd b9 f7 6b c2 ba 1f b7 38 bb f3 21 c9 ba
       -0.0003911545 -0.0014833201 -0.002818532 -0.0015345201
000240 59 79 47 3b 26 7f a0 3b 77 e3 91 3b 7f 19 96 ba
       0.003043732 0.00489797 0.0044521648 -0.001145169
000250 1a c0 c6 ba e7 2f 72 b9 3d 24 fd ba 08 08 6d bb
       -0.0015163452 -0.00023096763 -0.0019313168 -0.0036168117
000260 b4 6a 10 bb 28 29 e3 3a 3a 03 1e 3b 59 44 16 3b
       -0.0022036256 0.0017330991 0.002411081 0.0022928922
000270 0f e9 6c ba 59 56 1a bb ab 42 4c ba 77 e2 ce 38
       -0.0009037414 -0.0023550002 -0.0007791917 9.865028e-05
000280 3a ed 2f bb 32 97 8d ba 17 4c 54 ba 54 f8 ac b9
       -0.002684428 -0.0010802506 -0.00080984965 -0.00032991415
000290 70 19 f3 b9 87 aa 89 39 7e 3f f7 39 0a 20 01 b9
       -0.00046367524 0.0002625773 0.00047158817 -0.00012314334
0002a0 62 a0 e0 39 4f 69 28 3a e9 b6 33 b8 c9 07 86 3a
       0.00042844104 0.00064243836 -4.2847274e-05 0.0010225709
0002b0 29 4f af 3a a1 b0 9b 3a d3 b6 ed 3a f9 54 f9 3a
       0.0013375032 0.0011878201 0.0018136151 0.0019022516
0002c0 42 fb af 3a 72 ad f7 3a 93 ba 05 3b c7 e0 bc 3a
       0.0013426321 0.0018896295 0.0020405396 0.0014410251
0002d0 da 21 bf ba 7a 02 af ba bf bb 8f ba d1 d7 91 ba
       -0.0014582232 -0.0013352179 -0.0010965987 -0.001112694
0002e0 ce 6b a3 ba 97 62 ba ba 49 01 93 ba 2a 89 9f ba
       -0.0012468041 -0.0014220056 -0.0011215593 -0.0012171615
0002f0 81 cb bd ba b7 6b 93 3a 6c 95 2c 39 30 5c d4 39
       -0.0014480205 0.0011247311 0.00016458862 0.00040504476
000300 cb 00 1c 3a 30 0f 3e ba 88 d1 44 39 79 6d aa 3a
       0.0005951046 -0.0007250188 0.00018770073 0.0013002596
000310 81 50 77 3a cd b5 c3 3a 0f cb 91 ba f5 91 01 bb
       0.0009434298 0.00149315 -0.0011123138 -0.0019770835
000320 68 a0 eb ba 05 79 b8 ba a1 de 2f bb 71 64 f8 ba
       -0.0017976882 -0.0014074153 -0.0026835578 -0.0018950832
000330 d3 46 42 ba 61 cf 8b ba 1d f9 33 ba 7c dc a2 3a
       -0.00074110663 -0.0010666662 -0.0006865429 0.0012425329
000340 8b b9 23 3a 92 15 e4 39 30 81 05 3a 47 82 03 ba
       0.00062456046 0.0004350362 0.0005092798 -0.0005016666
000350 bf 67 5e 37 18 b2 21 3a 44 7e 0b 3a 9f f8 42 3a
       1.3256386e-05 0.00061682006 0.0005321244 0.000743756
000360 48 ea 36 39 32 03 36 3a 06 f1 2e 3a 2f 33 8c b9
       0.00017444149 0.0006943225 0.00066734885 -0.00026741016
000370 f7 5d 9a 3a 8b 19 01 3a 06 3c 0b 3a 31 ea 19 3b
       0.0011777271 0.00049247657 0.00053113734 0.0023485536
000380 26 ac 52 3a dc b4 fd ba d2 dd a6 ba 8a 88 f9 ba
       0.00080365164 -0.0019356268 -0.0012730903 -0.0019037884
000390 dd 89 15 bb 55 bc 3c ba 57 2e 0b bb 98 d2 fe ba
       -0.0022817769 -0.00071996945 -0.0021237337 -0.0019441424
0003a0 bc 88 43 b8 2b 58 19 bb 27 1b 3d 3a 43 7c 07 3b
       -4.6618967e-05 -0.00233985 0.0007213824 0.002067343
0003b0 00 1d b6 3a 84 1f 18 39 7c d6 23 3b cb 5c 9e 3a
       0.0013894141 0.0001450759 0.0024999669 0.0012082098
0003c0 cb cd ff b9 bd a2 14 3b bb 1a 51 39 87 29 0b 3b
       -0.00048790718 0.0022680007 0.00019941751 0.002123447
0003d0 17 ea 80 3a 80 2b b3 38 04 0c 3f bb ea 46 14 bb
       0.0009835389 8.543488e-05 -0.002915145 -0.0022625276
0003e0 fd fb 87 3a 4d 60 77 3a 34 8d 5e ba 1a fd 91 3a
       0.0010374781 0.0009436652 -0.0008489669 0.0011138052
0003f0 13 e9 12 3a ae 5b 4d 3a 76 03 e0 3a ef c4 a1 bb
       0.0005604189 0.0007833791 0.0017090875 -0.0049368064

421 f4 [16]
000000 d2 6c a5 3e 4c ad 59 3e 49 8d c6 3e d6 ad 01 3f
       0.32309586 0.21257514 0.38779667 0.5065588
000010 64 9d 4f 3e 8b 3f d4 be 5c 10 03 3e 02 09 39 3f
       0.20274884 -0.4145473 0.1279921 0.7227937
000020 5c 76 93 3d a2 00 81 3e cc 35 b8 bf 03 63 db 3d
       0.0720031 0.25195795 -1.4391418 0.10712244
000030 a5 bf a2 3e 5d 80 0f 3f d0 57 cf 3d 34 90 bc 3e
       0.31786838 0.5605524 0.10124171 0.36828768

423 f4 [16, 1, 3, 3]
000000 97 04 60 bf 63 fe ba bf 74 7e 4c bf f9 be a3 be
       -0.87507004 -1.4608883 -0.7988045 -0.31981638
000010 3a 3a da 3e 52 f4 78 be 5e f2 45 3f d8 38 8f 3f
       0.42622548 -0.24311951 0.7732295 1.1189222
000020 ce 83 75 3f 0a f0 45 bd 8d 83 c7 be 83 7c b7 3c
       0.95904243 -0.048324622 -0.38967553 0.022398239
000030 6f d9 95 bd 25 9c 0b bf 31 5d bc bd 27 5e 3c be
       -0.07316863 -0.5453513 -0.09197462 -0.18395291
000040 38 3b 1d be 8e f8 25 3c 76 7e 0d be c3 a7 1e 3f
       -0.15354621 0.010130061 -0.13817772 0.61974734
000050 c8 bb 97 3d bd 63 26 be 27 63 27 3f 8b 2c 2a 3f
       0.07408863 -0.16248985 0.6538567 0.6647422
000060 87 9a b9 3e 75 85 d2 be 17 43 a6 bb 23 69 70 3c
       0.36250708 -0.41117445 -0.0050739157 0.014673504
000070 e9 64 e1 be bf 33 2a bf 65 bf 86 be 27 96 94 be
       -0.440223 -0.6648521 -0.26317897 -0.29020807
000080 a0 97 fc 3d ab 2c 03 3e 40 71 fe 3d 12 1a ea bc
       0.12333608 0.12810008 0.124239445 -0.028576884
000090 a1 e2 74 bf 81 fb 90 bf 97 62 61 bf b0 27 d7 3f
       -0.9565831 -1.1326753 -0.8804106 1.6808987
0000a0 7d f5 2c 40 b4 17 0e 40 a4 0d 40 bf 9f c3 be bf
       2.7024834 2.2201967 -0.75020814 -1.4903449
0000b0 97 be ac bf 23 ce 20 3e 7e c8 e1 bf e5 bc 63 bf
       -1.3495663 0.15703635 -1.763931 -0.88960105
0000c0 3f f6 a6 3f 0a 4f fa 3f ea 66 a9 bf 00 15 8d 3e
       1.3043898 1.9555371 -1.3234532 0.27555084
0000d0 93 09 90 3f 72 2b b8 bc da 28 1e 3e 06 c1 c9 be
       1.1252922 -0.022481654 0.15445271 -0.39405078
0000e0 d7 b0 c6 3d 23 0c a6 be 43 b9 e7 be 64 7f 8f be
       0.09701698 -0.32431135 -0.4525853 -0.2802688
0000f0 e2 72 a9 bd cb f4 04 be c7 6f 97 bd fd d5 1d 3f
       -0.08273865 -0.12984006 -0.07394367 0.61654645
000100 e7 77 0e 3f 82 5d bf be 2d 44 9f 3e f1 f5 ea 3f
       0.55651706 -0.37376028 0.31106701 1.8356305
000110 73 d1 31 c0 79 e7 db 3e a0 ec 72 3f e3 ee c6 bf
       -2.7784088 0.42950037 0.9489231 -1.5541652
000120 68 65 6b 3e 73 52 d2 3e 45 60 82 3e bf 77 a1 bf
       0.22987902 0.4107853 0.25464073 -1.2614669
000130 f7 d6 ea bf a3 07 d4 bf 61 a1 75 3f ea e2 a6 3f
       -1.8346852 -1.656483 0.9594937 1.3037999
000140 e0 b5 77 3f 72 15 a6 3f 89 87 c9 3f 53 db d8 3d
       0.96761894 1.2975295 1.5744487 0.10588708
000150 d3 a9 08 3f d4 74 e5 bf 27 4d 63 bf 62 df 1a bf
       0.5338413 -1.7926278 -0.887896 -0.60497105
000160 c5 76 03 bf 07 1b 8d be 36 6b b0 be b0 9f 1d bd
       -0.513531 -0.27559683 -0.34456795 -0.038482368
000170 07 87 0e 3f f2 a0 cf be 3e 3e ac 3f d0 a2 e3 3d
       0.55674785 -0.4055248 1.3456495 0.111150384
000180 8e 02 67 3d 9a ad 12 3e 83 69 61 3e f8 0c 05 3f
       0.05639892 0.14324036 0.22012906 0.51972914
000190 d9 da a6 3f 7f ac 4c 3f 9a 13 3c bf ad a4 82 3e
       1.3035537 0.7995071 -0.7346741 0.25516263
0001a0 b3 d9 b7 3e ac 72 39 bf 46 00 9d bf cd 7c 39 bf
       0.3590828 -0.724406 -1.2265708 -0.72456056
0001b0 ef 1b 16 be 5f 8e 5e 3e f4 0c ea bd dc bb b1 3d
       -0.14659093 0.21733998 -0.11428252 0.086784095
0001c0 63 cb 2b 3f 8c 50 b4 3e 68 b2 1b be 32 83 6b 3e
       0.6710722 0.35217702 -0.15204775 0.22999266
0001d0 78 6c 8d bd 41 14 b0 3d 90 13 57 3e dd 95 25 3e
       -0.069054544 0.08597613 0.21003556 0.1617045
0001e0 f5 17 c8 bf d1 c0 14 40 f4 b2 5c 3d cd df a8 bf
       -1.5632311 2.3242686 0.0538816 -1.3193299
0001f0 2e ac 97 be b3 7b 66 3f 1d ab b0 3e 26 ff c2 3e
       -0.2962355 0.900325 0.3450555 0.38085288
000200 dd ad 62 be 0f 34 65 3e 9c f6 fb 3f ff 54 83 bf
       -0.22136636 0.2238314 1.9684634 -1.0260314
000210 f1 15 0d bf 5b 95 cf 3f ab 08 f9 bf ee e5 9c be
       -0.55111605 1.6217455 -1.945577 -0.30644172
000220 c0 de 32 bf 36 eb 64 3e 8d 88 03 c0 05 f2 50 3f
       -0.6987114 0.22355351 -2.0552094 0.8161929
000230 45 db a3 3f de 40 21 bf e9 a3 ef 3f 52 aa 78 be
       1.2801291 -0.62989604 1.8721896 -0.24283722

424 f4 [16]
000000 cc 89 b1 3e 60 64 c9 3f 96 e5 36 bf 80 9c 8c bd
       0.34675443 1.5733757 -0.7144407 -0.068657875
000010 86 31 35 bd 30 eb 54 3d 78 f7 b1 3e 62 e9 63 bd
       -0.044236682 0.051982105 0.34759116 -0.055642493
000020 48 dd 29 3d d3 96 c6 3d 09 4b a9 3e c1 85 bb 3e
       0.041470796 0.09696736 0.3306506 0.36625484
000030 cc 2a ce 3f 7a 84 75 bd d8 b1 a0 3b 43 84 2f bd
       1.610681 -0.059940793 0.004904013 -0.042850744

426 f4 [16, 1, 3, 3]
000000 31 b6 ff be ed 83 21 bf 07 c8 ea be fb a6 a3 bd
       -0.4994369 -0.6309193 -0.45855734 -0.07990833
000010 89 de fc 3e dd f8 23 be 0b 85 64 3e dd bc 78 3f
       0.4938853 -0.16012903 0.22316377 0.9716318
000020 f3 0e 30 3e be 42 c4 3d 8a 67 33 3f 6a 17 89 3d
       0.17193203 0.095830426 0.70079863 0.06693919
000030 c1 da dd bc 0a 7c 57 3e 6c ed 8d bd 46 57 4e bc
       -0.027081849 0.21043411 -0.0693005 -0.01259405
000040 bf c4 c4 bc a1 61 c3 3b df 60 6c 3e 5c 27 a1 3f
       -0.024019597 0.005962566 0.23083828 1.2590137
000050 73 bf 5a 3e 35 87 c9 3a d9 21 b9 bf b4 aa 9c 3d
       0.21362095 0.0015375378 -1.4463454 0.076497465
000060 09 45 cb bd e9 8a 56 bd c8 27 f1 3c e2 93 3f be
       -0.09925277 -0.05237857 0.029437914 -0.18708757
000070 71 ac 0a 3f a3 48 6f bb 50 d3 c8 be a6 35 80 3f
       0.54169375 -0.00365118 -0.3922372 1.0016372
000080 d6 6d 34 3e 5b ea 9f bd a3 1d 0a bf 7a 6a 17 be
       0.17620024 -0.07808372 -0.5395147 -0.14786711
000090 8f d7 7e bd ee 57 fb 3d 15 91 b2 bd 2a d9 51 3e
       -0.06221729 0.12272631 -0.087190785 0.20492998
0000a0 97 d3 83 bf 59 d8 01 3e 05 06 5a bd 59 3f 3a 3e
       -1.0298947 0.12680186 -0.053228397 0.18188228
0000b0 88 5d be bd 64 ea 49 3d 3f a8 15 bf 9b 30 c7 3c
       -0.092951834 0.049295798 -0.5845985 0.02431517
0000c0 06 73 6a 3c 71 c8 d3 be ef 7f 0e 3d 44 9e 21 bd
       0.01430965 -0.41363862 0.034789976 -0.039457574
0000d0 32 8a bd bc e9 ce 0f 3d 73 19 1b 3f 50 68 c5 3d
       -0.023137186 0.035109434 0.6058571 0.09639037
0000e0 6d 5d 28 bf 1b 77 57 3f 83 7e 22 be d4 a6 4c bf
       -0.65767556 0.84166116 -0.15868573 -0.7994206
0000f0 d1 91 96 3e 5f 8f 12 bc 9e b7 3c be ae 0a 65 bc
       0.29408124 -0.008945315 -0.1842942 -0.013979597
000100 e5 71 ba 3e 75 a2 f3 3c 6d 4e 74 3d e3 57 6a 3f
       0.3641502 0.029740551 0.059645105 0.91540354
000110 14 72 ae 3d 59 06 c4 bc 42 ac 1e 3b 65 3f 15 3d
       0.085178524 -0.023928808 0.002421156 0.03643741
000120 67 06 b0 3d 7a ec 39 be ff ae 02 3e 42 62 90 bd
       0.08594971 -0.18156615 0.12762068 -0.07049991
000130 83 6c 49 3f 2b 6d df 3c 4d a3 86 bd 6b ce a8 3e
       0.786812 0.027273735 -0.06574116 0.32969984
000140 55 2a ed bd 09 d2 bd bd 31 5d cc bb a5 ab 1f bd
       -0.1158034 -0.09268577 -0.006236695 -0.038982052
000150 b5 90 77 be 3a 1b f0 3f 62 ee 22 be 45 57 a5 3d
       -0.24176295 1.8758309 -0.15911248 0.08073286
000160 62 c7 55 be 3b 41 3c 3c 69 ca c5 3d 6a 21 79 3e
       -0.2087684 0.0114901615 0.09657747 0.24329153
000170 3a a7 60 be d2 5f ba 3e a4 9e ab 3f b6 a1 86 bf
       -0.21938792 0.3640123 1.3407788 -1.05181
000180 d8 d6 f0 bd f9 54 69 be 9f 8c a1 be 1d d4 c0 3c
       -0.11759728 -0.22786321 -0.31552598 0.023538643
000190 bf e5 12 3f 48 09 7c 3e 4f a4 17 bd cb 14 0f 3f
       0.57381815 0.24612916 -0.03702193 0.558911
0001a0 f1 30 18 3e bd 9c 33 3d f2 bf df bc 64 5f 89 bc
       0.1486242 0.04385065 -0.027313206 -0.016769119
0001b0 4f bf 07 3e 3b 87 ab 3f 95 07 87 bd cb a4 5b 3e
       0.13256572 1.3400644 -0.06593243 0.21449582
0001c0 87 6d c8 bf bb 29 cf be d2 f1 b4 3d 84 4c 6b 3e
       -1.5658425 -0.40461525 0.08835186 0.22978407
0001d0 55 68 99 bd 59 6f 86 3c 97 c1 bc 3c ba 36 00 bc
       -0.07490603 0.016410517 0.02304153 -0.007825548
0001e0 b4 a4 cf 3d 2c fb 99 bf 7d 70 42 3d 3e da 75 bd
       0.101388365 -1.2029777 0.04747056 -0.060022585
0001f0 85 da 7f 3e 18 0d 13 bd fa e4 3e bd 27 4a 10 3e
       0.24985702 -0.03590116 -0.046605088 0.14090787
000200 e4 6e 73 bd f4 d2 85 bd cc 3d 87 3f 22 ac 89 3c
       -0.059431925 -0.06534377 1.0565734 0.016805712
000210 02 b2 81 3d cb 2b 35 be d8 46 2a 3d 61 2a b6 3d
       0.063327804 -0.17692487 0.041571468 0.08894802
000220 87 1d 8d bc 88 78 a1 3d 09 84 be bd d4 ef 76 3f
       -0.017225994 0.07884318 -0.093025275 0.964597
000230 fa bf 39 bd 3f 65 0d be bf 3c e5 3d df 54 d2 bd
       -0.0453491 -0.13808154 0.11193227 -0.10270094

427 f4 [16]
000000 cc ae da 3d 17 c0 84 3f 80 43 44 bd 96 b3 6e 3f
       0.10677871 1.0371121 -0.047915936 0.93242776
000010 24 96 d7 3f d0 3d 3f 3f 01 e0 0d 3e f2 56 ab be
       1.6842694 0.74703693 0.13854982 -0.33464772
000020 58 7f c3 3d c5 a3 c6 3f 87 89 a2 3e ad 7d 3e 3f
       0.09545773 1.5518728 0.3174555 0.74410516
000030 a0 00 a9 3c 18 62 c7 3f d6 97 f4 be ac a9 09 be
       0.02063018 1.5576811 -0.47772092 -0.13443631

429 f4 [32, 1, 3, 3]
000000 d1 85 b8 be 78 07 4f bf 94 75 02 bf 81 61 21 be
       -0.36039594 -0.8087077 -0.5096066 -0.15759851
000010 55 94 8e 3d 17 a4 bd be 34 7d 20 3f 4b 54 8d 3f
       0.06961886 -0.37039253 0.62691045 1.1041349
000020 e4 13 1b 3f 42 92 77 be f8 7b a6 3b 27 03 8c 3e
       0.60577226 -0.24176887 0.005080696 0.27346155
000030 aa d3 27 be f2 a3 ad be 00 97 4d 3e 90 ed 6d 3f
       -0.16389337 -0.33914143 0.20077133 0.92940617
000040 0c 08 05 40 8c 16 3d bf 82 b8 08 3e 9e d8 92 3d
       2.0786161 -0.7386253 0.13351634 0.07170223
000050 85 ea 8f 3e b8 0a 88 3c 72 8f 9f 3f c0 c3 62 3f
       0.28108612 0.016606674 1.2465651 0.8857994
000060 11 81 1a bf 67 43 85 bf 46 29 07 bf 70 fc 8a 3f
       -0.6035319 -1.0411195 -0.52797353 1.0858288
000070 d4 eb 9d be 53 7e 4e bf 0a 4c 7f 3f 79 9f a2 3e
       -0.30843985 -0.80661505 0.997254 0.31762293
000080 49 8f aa bf c4 c1 1c 3f 68 9a bb 3e 58 48 4b bf
       -1.3324977 0.6123316 0.3664124 -0.7940726
000090 6d 9d 9a be 18 5c 04 bf 24 e2 6b bd 3a f5 15 be
       -0.3019823 -0.51703024 -0.05758871 -0.14644328
0000a0 75 9f 9d bf 84 85 03 bf fa 9c de 3e ae 45 07 40
       -1.2314287 -0.51375604 0.4347914 2.113628
0000b0 be 10 ef 3e f3 d0 c3 3c dd 4f 84 3e b5 4b 2b 3e
       0.4669246 0.023903346 0.2584218 0.16728099
0000c0 06 c1 d7 3d cb 7a 21 3f a1 80 b8 bb 8c 8c 40 3e
       0.10534863 0.6307799 -0.005630568 0.18803614
0000d0 8c 61 90 3e 4b b0 c0 bd c3 49 9f be ae 89 df 3e
       0.28199422 -0.09408625 -0.31110963 0.4365973
0000e0 7c bd 43 bd df 83 d9 be de d7 a4 bf 93 de 2b be
       -0.04778813 -0.42483422 -1.2878377 -0.16784124
0000f0 4d 5b c3 bd aa 80 90 3d 9c 2b 09 3d 06 3d e0 3e
       -0.095388986 0.07055791 0.033488855 0.43796557
000100 39 fb 3d 3e 18 02 04 be 83 99 bf 3e 5b 52 28 bf
       0.18552865 -0.12891424 0.37421808 -0.65750664
000110 70 a0 02 bf be b2 e1 3c 6f b7 57 be 57 45 c7 be
       -0.5102606 0.027551051 -0.21066068 -0.3892009
000120 ef de 25 bf a0 51 28 3e 0f e3 6d be 43 e4 38 bf
       -0.64793295 0.16437387 -0.23231147 -0.722233
000130 bf 02 af bd 75 de 06 3e 72 87 e7 3d 31 46 bc bd
       -0.08545446 0.13170798 0.11305131 -0.091930754
000140 0c fb c0 bd c5 31 62 be ee 4e 23 be c0 cc 84 3e
       -0.094228834 -0.22089298 -0.15948078 0.25937462
000150 8a 03 50 bd e7 22 21 bf 89 5a 0e 3d 51 29 bc 3e
       -0.050784625 -0.6294388 0.03475431 0.36750272
000160 cb d1 90 be 88 a7 0e bf 57 8a 9a bd 52 8b b6 3e
       -0.2828506 -0.5572438 -0.075459175 0.35653168
000170 66 5f f6 be 73 59 83 be 4c 55 ab bf c3 2d 35 3e
       -0.48119658 -0.25654182 -1.3385406 0.17693238
000180 3a 16 96 bd ab 84 16 be 3e 2d d1 3e 81 5a 28 3d
       -0.07328458 -0.14699046 0.4085483 0.041101936
000190 dd 9f ce bd 1d cc f4 3d 29 22 e2 bd 2d 73 88 bf
       -0.10089085 0.11952994 -0.11041672 -1.0660149
0001a0 cd e4 2a 3e c7 e6 2b 3d 8e 00 fa bd 8f 15 a9 3d
       0.16688843 0.041968133 -0.12207137 0.08256065
0001b0 3d 50 1a 3e a9 ec 17 bf f4 d2 e5 be fa 9e 35 bf
       0.15069671 -0.5934549 -0.44887507 -0.70945704
0001c0 bf e9 3c bb a1 2e 19 3e 50 d6 01 bf d3 7c b0 3e
       -0.0028825847 0.14959194 -0.5071764 0.34470233
0001d0 29 bc 96 3d 1e 03 49 be fe b5 29 3e dc 9b a7 bd
       0.073601075 -0.19630095 0.16573331 -0.08184025
0001e0 9a b3 45 be c7 82 84 bd aa 1e 23 be c8 0d 6b 3e
       -0.19306794 -0.06470256 -0.15929666 0.22954476
0001f0 bc cb e1 3f 08 48 3d bc d7 0c 8d bd 23 03 bf be
       1.76403 -0.011552818 -0.06887215 -0.3730708
000200 33 fc 66 be 46 66 65 3e 6a 44 17 bf b9 bc bb 3e
       -0.22557144 0.22402295 -0.59088767 0.3666742
000210 03 7c 77 bb 9d 09 0b bf 99 cc e5 bc de b4 e8 3d
       -0.0037763126 -0.54311544 -0.028051661 0.11362623
000220 1a 77 1e bd 32 4e c3 3d fb 5b 11 3f 03 48 a2 3f
       -0.038687803 0.09536399 0.56780976 1.2678226
000230 72 c6 57 be 35 0d 3c 3e 6f c9 c8 3d 7c 01 85 3d
       -0.21071795 0.18364413 0.098040454 0.06494424
000240 7e 31 78 3e 79 02 01 be 2a 3c 52 be c8 fa 50 3d
       0.2423763 -0.125986 -0.20530763 0.051020414
000250 0a 55 2f bf 8d aa 32 bf d2 fa 00 3e 12 03 19 3e
       -0.68489134 -0.6979149 0.1259568 0.14942577
000260 f4 ed e2 3d 73 ff 44 bf 3c 84 d4 bf c8 7f 17 be
       0.11080542 -0.76952285 -1.6602855 -0.14794838
000270 30 67 fe 3e 88 05 cf 3f 14 3c 29 bd b8 24 d5 3d
       0.496881 1.6173563 -0.04131706 0.10407394
000280 36 47 f3 3e 01 63 e1 3d 72 e1 83 bf ca 22 6c bf
       0.47515267 0.110052116 -1.0303175 -0.92240584
000290 21 a5 29 bf 77 5e 84 3d bf ba 22 3f 46 bc 9a be
       -0.6626759 0.0646333 0.635662 -0.30221766
0002a0 e2 96 0e 3f 79 ed 9a 3f 13 9c c6 3e 4a 71 11 be
       0.5569898 1.2103721 0.3879095 -0.14203373
0002b0 66 18 89 3e eb 6b 93 be b1 c2 da bb aa 25 ad bf
       0.26776427 -0.28793272 -0.006676041 -1.3527119
0002c0 16 9d 23 3d 7d a9 1f 3e 2d 82 6e 3e ce d8 4b 3d
       0.03994473 0.15591998 0.23291846 0.049767308
0002d0 c7 39 28 be f2 b7 94 3e 44 7c 48 be 88 91 8a 3e
       -0.1642829 0.2904659 -0.19578654 0.27064157
0002e0 49 04 b8 3f 7b 2f 2f be 48 b0 67 be 5c 1f c5 be
       1.4376308 -0.17107956 -0.2262584 -0.38500488
0002f0 41 de a5 3d de cd 45 3f ff 83 7c bf e7 b6 a8 be
       0.08099032 0.77267253 -0.9863891 -0.32952043
000300 ab 92 04 40 84 99 ce be 79 05 80 bf 27 a7 13 3f
       2.071452 -0.40351498 -1.000167 0.5767693
000310 db 3b 0e bf ca 5e 27 3d 48 7e 95 be c3 aa c3 3e
       -0.5556008 0.040861882 -0.29197907 0.38216218
000320 f0 95 76 bd fc 9b 1a bf 2b 4b 83 be be e5 f0 3e
       -0.060201585 -0.60394263 -0.25643286 0.4705028
000330 b7 f2 a1 be 16 1a 8d bf 4f f2 03 be 4c fe 28 bf
       -0.3163049 -1.1023586 -0.12885402 -0.66013026
000340 d1 2a 16 bf 0f 03 f5 be 01 5f b3 be 04 94 cc 3d
       -0.5865908 -0.47853896 -0.3503342 0.09989169
000350 b5 05 ac bd 20 11 03 3f 20 a9 88 3f 1a cf e1 3e
       -0.08399526 0.51198006 1.0676613 0.44103318
000360 8e 1a c2 3c 2d 69 39 3f 98 7c f5 bd a0 76 18 be
       0.023694303 0.7242611 -0.11986655 -0.14889002
000370 2d 7e de bf 19 d1 dc 3c dc 2b 33 3d bf ac a0 be
       -1.7382256 0.026955174 0.043743 -0.31381795
000380 bb 6f 3f 3d a0 2b ce 3e 80 ea e2 bd 8b da b3 bf
       0.046737414 0.40267658 -0.110798836 -1.4051069
000390 33 27 23 3e 1a d7 96 bf 1a 9f b0 3d 52 30 c7 be
       0.15932922 -1.1784394 0.08624096 -0.38904053
0003a0 d2 71 28 be 87 b6 72 3f fc 30 39 bf 56 5a 73 be
       -0.16449669 0.94809765 -0.7234037 -0.23764929
0003b0 8d 6a 9e be f9 c6 c0 3d 47 9b 07 bf a8 cf 3d 3d
       -0.30940667 0.09412951 -0.5297131 0.046340615
0003c0 21 df cf be 14 1f cb bc 2c eb 04 bf 2f 6d e7 3e
       -0.4059992 -0.024795093 -0.51921344 0.45200488
0003d0 5e de 3d bf ec 48 91 3e ca dc 18 3e c8 ad 9f 3f
       -0.7416743 0.28375947 0.14927974 1.2474909
0003e0 67 3e 50 be c3 db 13 3d 79 2f 9c 3e 35 ff 6a 3e
       -0.20336305 0.036098253 0.3050497 0.22948916
0003f0 b4 fb df 3d 4d 02 67 be d2 de 9c 3e cf 67 e0 bf
       0.109366804 -0.22559471 0.30638748 -1.753168

430 f4 [32]
000000 22 78 64 3e 97 1a b3 bf 70 9a 1b be e0 22 76 bd
       0.22311452 -1.399249 -0.15195632 -0.060091853
000010 92 33 d4 bd 98 bd bf 3f eb 52 11 3f 2a 2b 68 3f
       -0.10361399 1.4979734 0.5676715 0.90690863
000020 5f d1 4c 3e b0 4a 3f 3d 00 a0 fb bb d0 12 8f 3c
       0.20001744 0.046702087 -0.0076789856 0.017465025
000030 63 3e 80 3f 2c 56 88 bc 81 eb f6 be d0 39 97 be
       1.0019039 -0.016642652 -0.4822655 -0.29536295
000040 3a 80 52 3f cd 20 bd 3d 77 99 36 bd b5 e1 56 3f
       0.8222691 0.09234772 -0.04457995 0.8393815
000050 02 93 98 3e 38 0d 17 3c e2 a0 11 bf 9c 74 92 3e
       0.29799658 0.00921946 -0.5688611 0.2860459
000060 24 fc 37 3e 78 55 95 3e 48 8a d3 3f aa 3a 5b 3e
       0.17967278 0.2916677 1.6526575 0.21409097
000070 db e7 c0 3e 00 24 5b bd 5a 84 13 bc 80 97 37 3d
       0.37676892 -0.05350113 -0.009003723 0.044822216

432 f4 [32, 1, 3, 3]
000000 b1 cf 12 3f 22 7d 3d 3f 21 60 16 3f 3e 59 59 be
       0.5734816 0.7401906 0.5874043 -0.2122545
000010 aa c4 8a bf 13 e6 85 be 67 ed 98 be f4 f4 89 be
       -1.0841267 -0.26152095 -0.29868624 -0.26944697
000020 b0 2f 00 bf 24 f1 97 3d e9 58 ee 3e 72 99 d6 3e
       -0.50072765 0.07419041 0.46552208 0.41913944
000030 22 8a d2 bd 60 ab 14 3e 30 9a f6 3e 3f 52 7f 3d
       -0.10280253 0.145185 0.4816451 0.062334295
000040 00 62 45 be 76 d6 65 3e fc a1 c1 be 13 2d 3b 3e
       -0.19275665 0.22445092 -0.37818897 0.18278913
000050 f5 19 1d be 4f b5 b1 bd 1d f6 a5 3f 1a 3c 07 3f
       -0.15341933 -0.0867716 1.2965733 0.5282608
000060 3b c2 9e be ea 5d 1f 3e 7d 30 f4 3d 45 de f1 bc
       -0.3100756 0.15563169 0.11923311 -0.029524932
000070 86 d9 74 bd 55 23 ba bd a6 f0 7e 3e 49 11 22 bf
       -0.05977776 -0.0908877 0.24896488 -0.63307625
000080 1c f9 2d bf 96 13 c9 bd 67 a8 68 bd e1 b8 9a be
       -0.67958236 -0.09818189 -0.056801226 -0.30219176
000090 0e eb a0 bd 55 3d 04 40 44 6b fa be b7 85 db bb
       -0.07857333 2.0662434 -0.48909962 -0.0066992897
0000a0 7f 04 d2 3e 46 f4 8c be cd 1d 54 3e b4 a4 55 be
       0.41019055 -0.27530116 0.20714493 -0.2086361
0000b0 10 cd cf 3d 79 36 97 3e 24 e8 5f 3f 74 7a 11 3f
       0.101465344 0.29533747 0.87463593 0.56827474
0000c0 3f 4c 20 be e6 d8 46 3e bb 7e 61 3f 2c 8e 7a be
       -0.15654086 0.19418678 0.88084 -0.24468297
0000d0 4d d9 90 be 43 25 f8 be b1 ea 8b bd 8f 45 e6 3e
       -0.28290787 -0.48465928 -0.06831873 0.44974944
0000e0 06 54 7e bd 06 f7 32 be b5 69 80 bf a3 3e 61 be
       -0.06209185 -0.17477044 -1.0032259 -0.2199655
0000f0 ab db 71 3e c4 6b 2c bf 5b bf 80 3e 45 71 00 be
       0.23618953 -0.6735194 0.25145993 -0.12543209
000100 cd a2 db be f9 dc 0e be af 46 1c bf cc 51 25 be
       -0.42897645 -0.13951482 -0.61045355 -0.16144484
000110 02 01 c7 3f 5b 27 5e 3c 31 8d 90 3f 56 29 43 3d
       1.5547183 0.013559188 1.1293088 0.047646843
000120 5d 6c 7c 3d 53 30 e8 3e 82 cc 92 3e 9a 13 90 3e
       0.06162678 0.45349368 0.28671652 0.28139955
000130 77 18 b8 3e b3 5b f4 3e f2 89 f2 be cb 62 64 bf
       0.35956165 0.4772621 -0.4737087 -0.89213246
000140 1f 8e 22 bf e1 99 80 3e 77 d7 26 3f 87 30 1a 3f
       -0.6349811 0.251174 0.65172523 0.60230297
000150 f3 d3 3f bf 6f 47 3c 3f 9a f1 57 3e 00 b9 1f 3c
       -0.74932784 0.735465 0.21088257 0.009748697
000160 5d 42 fb be f7 1a 2a be 89 b8 3e be 03 5a 2a 3f
       -0.4907407 -0.16611849 -0.18625082 0.66543597
000170 7c 01 23 bd c9 a9 c3 be a9 ca 2c 3f d2 cf 15 3f
       -0.039796337 -0.38215473 0.67496735 0.58520234
000180 73 02 73 bf 0e eb 68 be 7a 91 ff 3e 83 be 5a 3d
       -0.9492561 -0.22745916 0.49915677 0.053404342
000190 01 45 52 3f 7e f6 18 3f 0f 06 0d be 56 14 26 3e
       0.8213654 0.5975112 -0.13771842 0.16218695
0001a0 00 ee b6 bb 52 c5 30 3d 26 a2 23 3e ee d2 53 bc
       -0.005582571 0.04315693 0.15979823 -0.0129287075
0001b0 36 d9 4b 3e 75 0e 43 be 28 2f 46 3d c8 7b a5 be
       0.19907078 -0.19048484 0.048384815 -0.32321
0001c0 b6 66 0a 3f 96 a2 90 be f9 65 98 3e 11 9f 93 3f
       0.54062974 -0.28249043 0.297653 1.1532918
0001d0 01 25 13 3f 4c 20 c4 3f 57 ee 27 bd d7 58 ec be
       0.5747834 1.5322356 -0.040998783 -0.4616153
0001e0 81 34 f3 3e 8a a4 5b be 39 ed 8d be 1f d2 81 be
       0.47500995 -0.21449485 -0.2772005 -0.25355622
0001f0 95 04 4e be db fc b4 be f3 3e 59 3d 77 27 c3 3e
       -0.20118935 -0.35349163 0.05303855 0.38116047
000200 20 95 57 bd 61 a0 46 3e 14 3d 38 3f 60 5e a2 3d
       -0.05263245 0.19397117 0.719682 0.07928157
000210 61 be 10 3b f1 00 9c 3e 6d 4b 5c 3d eb 58 bf 3e
       0.002208613 0.30469468 0.05378287 0.37372527
000220 4c 2b cf 3e 7e cf e9 be 1b 7e 79 3f 4b 9e 22 3f
       0.4046272 -0.45666116 0.97458047 0.63522786
000230 a0 36 9c bf f8 ff 00 3e 58 bf 76 be 05 05 ba be
       -1.220417 0.12597644 -0.2409643 -0.36331955
000240 79 66 b0 bf fd 3d 97 bf cf 39 a4 3d 11 68 86 bd
       -1.3781272 -1.1815792 0.080188386 -0.06562818
000250 84 08 48 3f f9 af 30 3e 85 77 0b be 64 b3 72 3f
       0.78137994 0.17254628 -0.13619812 0.9480498
000260 04 df 9c 3e 04 04 3a 3e 07 87 00 3e d4 fe e2 3e
       0.30638897 0.18165594 0.12551509 0.44335043
000270 7c 41 9d bf d9 da a3 bf 38 de 22 3f b5 58 57 3e
       -1.2285609 -1.2801162 0.6362033 0.21029933
000280 47 dd 1c be b3 d7 6d 3f de 1e 9b be 5b 92 ab bd
       -0.15318786 0.92907256 -0.30296987 -0.083775245
000290 f9 c0 12 3e 06 0a 1f 3c 10 b3 db bf 0b 97 87 3f
       0.14331426 0.00970698 -1.716402 1.059297
0002a0 f8 f4 1a 3d 06 1c b9 be 40 43 86 3e 47 19 57 3e
       0.037831277 -0.36154193 0.26223183 0.21005736
0002b0 71 30 be 3d 15 e6 e2 bd 72 3a 95 3e 4e c2 c0 3f
       0.09286583 -0.11079041 0.29146153 1.5059297
0002c0 33 0a 00 c0 b7 1c 4a 3f f6 a6 00 bf 56 5d 28 bf
       -2.0006225 0.78950065 -0.5025476 -0.6576742
0002d0 37 78 5d 3e 64 be 84 bf d8 e9 bf be 5b a7 88 be
       0.2162789 -1.0370603 -0.37483096 -0.26690182
0002e0 be c1 62 3d db fa 8e be ed 13 3f bd 2a c5 cf 3d
       0.05536055 -0.27925763 -0.046649862 0.10145028
0002f0 9e 24 c8 be 95 c3 c1 be 21 9f be be 56 1d 28 3c
       -0.39090437 -0.3784453 -0.3723078 0.0102609005
000300 66 41 47 bf 12 f3 8a 3e f8 41 59 3f 60 30 2a bf
       -0.77834165 0.27138573 0.84866285 -0.66480064
000310 c5 cc 56 3e 9e c9 3e 3f 6f 46 cd 3e 38 8a 1b bf
       0.20976551 0.74526393 0.400928 -0.6075778
000320 a7 5f 4d bf 9c 98 35 3f 92 50 12 3f c9 b7 61 bf
       -0.8022408 0.7093599 0.5715419 -0.8817106
000330 a5 cb 58 3f 8c ce bd 3e 6c 73 be be 74 51 de bd
       0.84685737 0.37071645 -0.37197435 -0.1085538
000340 d0 1b 71 be ca a2 3d bf 51 0f 5c be 57 2d 18 3c
       -0.23545766 -0.7407652 -0.21490218 0.009288154
000350 de f9 25 bf 64 35 08 bd be 8a 11 3d a2 25 1a 3d
       -0.6483439 -0.033254042 0.035532705 0.037633546
000360 ac f0 21 bd fa 8f 3b 3e 4b 9f 31 3e b0 06 ae be
       -0.039536163 0.18316641 0.17345922 -0.33989477
000370 69 be 19 bf a0 62 a2 be 99 81 a3 be 6d 04 6a bf
       -0.6005617 -0.3171587 -0.31934813 -0.91413003
000380 9e df 37 be b1 99 8d 3f a5 c4 42 3f bb e0 c2 be
       -0.17956397 1.1062528 0.76081306 -0.3806208
000390 6a 30 ca 3e 03 3e 34 be d6 ed ae be d1 9c 04 bf
       0.39490062 -0.1760178 -0.3416583 -0.5180178
0003a0 8c 81 f5 be 65 84 df bd 53 7b d0 3d cb 38 22 be
       -0.479504 -0.10913924 0.10179772 -0.15841977
0003b0 88 2d 97 bf 9d 73 cf 3d b5 f3 b8 bd 11 be 03 bf
       -1.181077 0.10129473 -0.090308584 -0.51461893
0003c0 40 0d 84 be fe 4b 0f 3d 4f 1f a8 bd 27 eb 31 bf
       -0.2579136 0.03498458 -0.08209097 -0.6949944
0003d0 74 ea 54 bf ff 2a 0b bf ce 91 9e be 7e 95 9e 3f
       -0.8317025 -0.5436248 -0.30970615 1.2389371
0003e0 3c 42 dd be 6a a7 20 3e 7a 79 85 3f 5b d2 99 bc
       -0.43214595 0.15688863 1.0427697 -0.018777063
0003f0 8d c7 b0 be bf 9e 76 be 82 8e 81 3b 3b 14 b9 bd
       -0.34527245 -0.24083994 0.003953756 -0.09037062

433 f4 [32]
000000 61 2b fa 3e 51 7c 11 3f 4a 93 f2 3e 0c 1c 75 bd
       0.4886122 0.56830317 0.47377998 -0.0598412
000010 71 8a 3c 3f 27 b4 15 3f dc 3a af be 5f 41 1b be
       0.73648745 0.58478016 -0.34224594 -0.15161656
000020 12 dc 09 3f 5c 62 a5 bd ce ac 9a 3e 99 32 13 3e
       0.53851426 -0.08075401 0.30209965 0.1437477
000030 7b 26 de be 21 5d 55 3e 73 38 8c 3e 72 5c ff 3d
       -0.43388733 0.20836307 0.27386817 0.124688044
000040 2f 17 34 be 78 5b ec ba d5 c2 34 bd 90 0f f1 3d
       -0.17586969 -0.0018032631 -0.04413112 0.117705464
000050 60 94 40 bc 9b fb 82 3e dd cc 1b bd 22 aa 3c bf
       -0.011754125 0.25582585 -0.03803717 -0.736971
000060 ff c1 c4 bf e2 74 09 3f 24 fb f0 3e 8c a6 6b 3e
       -1.5371703 0.53693974 0.47066605 0.23012751
000070 bd 01 bb 3e e1 ad 19 3f 08 ae bc 3e 61 7c c9 3c
       0.36524764 0.60030943 0.36851525 0.024595441

435 f4 [64, 1, 3, 3]
000000 29 76 0c bf 47 36 d0 3d 3a a0 14 3f fc 52 e8 be
       -0.548678 0.101666026 0.58056986 -0.45375812
000010 9f 17 8c 3e 93 ba 1c 3f 0c 90 fd be ba 65 71 3e
       0.2736177 0.6122219 -0.49523962 0.23573962
000020 91 ad 09 3f 95 73 af be b9 5f f6 bd e0 5f b2 bd
       0.53780466 -0.3426787 -0.120299764 -0.08709693
000030 f0 77 4b be bb 52 1a bf b1 fb 24 3d a6 aa 23 be
       -0.19869971 -0.60282487 0.040279094 -0.15983066
000040 1b b9 8e be b9 e6 07 be 20 f0 19 3f dd 13 16 3f
       -0.278756 -0.13271607 0.60132027 0.5862406
000050 a0 20 fb 3e 4e ea fa 3d ba 9c 97 be 44 dd 18 3b
       0.49048328 0.12251721 -0.2961176 0.0023325244
000060 e2 39 3a bf 35 dd dc be 7e 96 93 be ab df 2d 3f
       -0.7274457 -0.43137518 -0.28825754 0.67919415
000070 7d a9 fe 3e 05 80 a4 be c8 4e 00 3e 4d d3 74 3f
       0.49738684 -0.3212892 0.12530053 0.9563492
000080 ca 3b 88 3e 10 eb 42 bf 42 a0 fe 3a ad c7 e1 3e
       0.26608115 -0.76139927 0.0019426423 0.44097653
000090 13 4e 9c 3e c7 26 d0 3e 06 84 9a 3e 62 92 e4 3d
       0.30528316 0.40654585 0.3017885 0.11160733
0000a0 f2 2a af 3e 1e db b8 3e ae 1d df 3c 1a 19 62 3d
       0.34212452 0.36104673 0.027235832 0.05519972
0000b0 18 5d b9 3e 9b 39 de bc 23 0e 14 bf 9c f5 41 be
       0.36203837 -0.027127078 -0.5783407 -0.18941349
0000c0 c0 7a ed be b6 00 a9 be 9f da 31 3e cc 49 0a bf
       -0.46382713 -0.33008355 0.17368554 -0.54018855
0000d0 df fd 0c 3e 17 7d 10 3e 90 e2 d8 3d 61 1d 4a be
       0.13768719 0.14110218 0.10590088 -0.1973777
0000e0 79 71 8c be c7 20 2c be 79 38 b7 be d2 a4 ea bd
       -0.27430323 -0.16809379 -0.35785273 -0.11457218
0000f0 11 21 b6 be 0c a2 db be 75 45 8a be e8 35 a8 3e
       -0.35572103 -0.4289707 -0.27006117 0.32853627
000100 f5 f4 cb be 22 6b 46 be d5 f9 9e 3f 68 57 9c 3d
       -0.39835325 -0.19376805 1.2419993 0.07633859
000110 6f 65 32 bf d8 dd 25 3e fe b7 7c 3e c2 f1 be be
       -0.69686025 0.16197908 0.24679562 -0.37293822
000120 98 17 a9 bd 58 ba 89 be de c2 66 be f7 f9 03 3e
       -0.08256453 -0.26899981 -0.22535273 0.12888323
000130 c2 d9 83 be 40 eb be be 59 c2 71 3e e0 22 02 bf
       -0.25752074 -0.37288857 0.23609294 -0.50834465
000140 02 fd 51 bf b1 29 26 3f b6 e2 3c 3e 60 2b 38 bf
       -0.82026684 0.64907366 0.18445858 -0.71941185
000150 57 f5 a8 3e 96 e4 0d bf a6 dc f7 be 30 53 75 be
       0.3299968 -0.5542692 -0.4841053 -0.23957515
000160 b8 27 9e be 45 b5 c4 bc d9 b9 3a be 56 14 8f be
       -0.30889678 -0.024012217 -0.18234958 -0.27945203
000170 6c cc 65 be 63 6d 43 be 88 68 d3 be 75 77 6f be
       -0.22441262 -0.19084696 -0.4129069 -0.23385413
000180 39 0e 9f be 85 f9 b0 be f8 ff d9 bd 3b df 47 be
       -0.3106554 -0.34565368 -0.10644525 -0.1951875
000190 ea 42 f0 bd dd df 45 be c0 e3 80 bd 14 89 e3 bd
       -0.11731513 -0.19323678 -0.0629344 -0.1111013
0001a0 08 52 e3 bc a6 7f e6 be ee 81 21 bf 14 b6 b7 be
       -0.027749076 -0.45019263 -0.6308888 -0.35881102
0001b0 ef ea bc 3d e9 be e3 bd c7 cb 46 3e 91 96 01 3e
       0.092244975 -0.111203976 0.19413672 0.12655093
0001c0 44 4b c9 3e 9d 53 e7 3e e1 14 5d 3e 67 30 3f 3f
       0.39315236 0.4518098 0.21589996 0.7468323
0001d0 74 7e f7 3e f9 42 48 bd fe 66 38 3f fb e5 47 bf
       0.48338664 -0.048891995 0.72032154 -0.780853
0001e0 14 f0 7d bd e7 14 70 be 8c b0 76 3f 9f 6d 27 bd
       -0.061996534 -0.23445474 0.9636314 -0.040876027
0001f0 2a 83 5e 3d fc 72 b9 3f 8f ed e7 3d ce 52 9a be
       0.054324307 1.4488215 0.113246076 -0.301413
000200 09 e3 2a 3e 06 f0 a7 3e f3 17 01 3f 9e 8f 24 3f
       0.1668817 0.3280031 0.5042717 0.6428164
000210 4d b2 ec 3e e7 76 37 3f b2 95 9f 3e 75 a2 d3 be
       0.46229783 0.71665806 0.31168896 -0.41334882
000220 61 9b a2 3e 96 96 2b 3f c3 dd 53 bf 55 08 10 be
       0.3175917 0.6702665 -0.82760257 -0.14065678
000230 88 bf aa 3e 73 07 0f bf 0b ce 36 bf 15 8a b1 3e
       0.33349252 -0.5587074 -0.71408147 0.3467566
000240 d8 e1 e5 3e ef af 21 bf a5 d6 34 3e dc 61 1a bf
       0.44898868 -0.6315908 0.17660005 -0.6030557
000250 9a 2d 5e bf d6 2e 8d 3e 2b 3c 2a bf ec 19 28 3f
       -0.8678833 0.27574795 -0.6649806 0.65664554
000260 7a 25 0e 3f 8b fa cf bc 59 49 ce 3d 5c b3 b1 3d
       0.55525935 -0.025388023 0.10072584 0.08676788
000270 33 bb dd 3d 4e 7a 58 3f 88 36 f1 3e a6 90 9d be
       0.10826721 0.8456162 0.47111917 -0.3077442
000280 88 09 35 3e b5 ba 82 3e 62 cb 9a 3e 66 9a c4 3e
       0.17679417 0.2553307 0.30233294 0.38399047
000290 c6 34 c6 3d 9b 2b bb 3e ef 6d ee 3e 23 19 21 be
       0.096780345 0.36556706 0.46568248 -0.15732245
0002a0 2d 9f 31 3f ab c7 b6 3d 1a 99 10 be 84 9c aa be
       0.6938351 0.089248024 -0.14120904 -0.33322537
0002b0 96 20 d8 be a1 40 ca be 75 d3 d9 be 8c 23 23 bf
       -0.4221236 -0.39502433 -0.4254414 -0.63726115
0002c0 bc 08 31 bf 75 3d 8e bd b9 6c 8b be 6d 7c f7 be
       -0.6915395 -0.06945316 -0.27231386 -0.48337117
0002d0 cd f8 88 be 67 9e 29 3f 66 1f 02 bf d6 8f 0b bf
       -0.2675232 0.6625733 -0.5082916 -0.5451635
0002e0 8a c2 86 3f b3 3f c5 be 2f c1 16 3e 42 66 a9 3f
       1.0528119 -0.3852516 0.14722131 1.3234332
0002f0 b5 f4 81 be f6 c2 1c 3f c5 dc 38 3e 18 30 16 bf
       -0.2538201 0.61234987 0.18052967 -0.58667135
000300 c2 f2 c1 3e 6b 51 96 3d d7 e6 27 bf 30 a8 03 3f
       0.37880522 0.07339748 -0.6558661 0.5142851
000310 37 b5 da bc e1 64 25 bf df 26 bd bd 0c 94 24 3f
       -0.026697738 -0.64607054 -0.0923593 0.642884
000320 f7 36 fd be 3e bc 12 bf d8 be ae bf 23 75 d9 3f
       -0.49455997 -0.57318485 -1.3651991 1.6988872
000330 c3 11 27 3f 20 09 2b 3f 08 58 86 bf 3b 99 7a be
       0.6526148 0.668108 -1.0495615 -0.24472515
000340 53 90 4b be aa 3a 25 be 15 8b 3c bd 9b 20 c1 be
       -0.19879274 -0.1613566 -0.046031076 -0.37720188
000350 8a d8 9a be aa 35 8d be ef 80 e2 be f7 2e 9b be
       -0.3024333 -0.27580005 -0.44238994 -0.3030927
000360 27 ef 04 3f 48 01 09 bd 71 34 29 bf 38 e6 6d 3d
       0.5192742 -0.033448488 -0.66095644 0.05808088
000370 ad 35 17 be 33 bf 69 bf db 2e 09 be 53 ec 96 be
       -0.1476657 -0.9130737 -0.1339678 -0.29477176
000380 ae c3 99 be 5e 31 b7 3e 68 28 e7 bd 4d de ff bd
       -0.30032104 0.35779852 -0.11287004 -0.124935724
000390 f8 3b 95 3f 70 c0 5b 3e df 09 29 3d c1 7f 9b 3e
       1.1658926 0.21460128 0.04126918 0.30370906
0003a0 6b 6c 81 3d 81 8f 46 3d 82 e4 45 bf 65 0d 6a bf
       0.06319507 0.0484767 -0.773018 -0.9142669
0003b0 ef 6b 84 bf fd 87 a7 3c 5f b5 c0 3d ca 2e cf 3c
       -1.0345439 0.020450586 0.09409594 0.025290865
0003c0 e9 cc 2f 3d 6d 60 56 3e 44 f7 99 bc 03 13 e7 3c
       0.042920027 0.20935221 -0.018794663 0.028207308
0003d0 8a c2 57 3f ff 82 1e bf 8d 31 cc be 96 a0 2f 3f
       0.8428122 -0.61918634 -0.39881554 0.6860441
0003e0 5c c2 56 bf cc 9e 74 3e 62 e4 1b 3f 7c 41 10 be
       -0.8389032 0.23888701 0.6089536 -0.1408748
0003f0 5a 4d c5 be 11 93 d2 be f5 c4 ab be a2 8b 5a be
       -0.38535577 -0.41127828 -0.33548704 -0.21342328

436 f4 [64]
000000 b5 2d 6a bd 2a 76 fd 3d 28 79 b6 bd 7c 8e f1 3e
       -0.057172496 0.12376054 -0.089098275 0.4717902
000010 04 16 97 3e 9f 06 9f bd b4 7f e2 be 5c 80 78 bd
       0.29508984 -0.07764935 -0.44238055 -0.060669288
000020 10 2e be bd a2 8d f6 3d 47 ac fe 3e 8d 37 a4 3e
       -0.092861295 0.12038733 0.49740812 0.32073632
000030 30 1e 35 bf d3 68 3e be ce d8 17 bf 12 c6 10 be
       -0.7074919 -0.18594675 -0.5931519 -0.14138058
000040 dc f7 16 be f6 c1 0b 3e c2 1c 06 be 08 4f 1c bf
       -0.14742988 0.13648209 -0.13096908 -0.6105809
000050 be 28 e2 3d 81 7b 1f be 71 0f 84 bd aa d5 d6 3d
       0.11042927 -0.15574457 -0.06448258 0.10489972
000060 bd 13 4c bd 0b f3 16 3e a3 1c 19 be 54 8e 0c bd
       -0.04982351 0.14741151 -0.1495233 -0.034315422
000070 b0 1b 18 be 7c 1e 10 be 8a d6 77 3d 88 9b 22 3c
       -0.14854312 -0.14074129 0.060507335 0.009924777
000080 2f fa d1 3e 99 d1 08 bf bf 07 8e be 5e 47 54 3f
       0.41011187 -0.5344482 -0.27740285 0.829214
000090 de f9 35 bf f2 93 f2 3d a8 2d 14 3f d8 11 69 be
       -0.7108439 0.118446246 0.57882166 -0.22760713
0000a0 ed 4e bb 3e ff f4 cc 3e 40 a0 a4 3b a8 f6 45 3d
       0.36583653 0.40030667 0.005023986 0.048330933
0000b0 f8 d2 b1 be f8 57 ad 3c 40 59 c9 3b 0b 14 b7 be
       -0.3473127 0.02116011 0.0061446726 -0.3575748
0000c0 0e 74 77 bd 60 e9 04 bd 79 23 42 3e b0 3b 98 bd
       -0.060413413 -0.032449126 0.18958844 -0.074332595
0000d0 44 31 a9 be 07 90 f2 bd 34 f0 0f bd 6b eb 05 bf
       -0.330454 -0.11843877 -0.035141185 -0.52312344
0000e0 d7 71 3f 3e 73 d7 8e bf c0 ac 1f 3f 1e 81 a9 bc
       0.1869577 -1.11595 0.6237297 -0.02069145
0000f0 1c a6 9a 3e 0e 15 08 3f 16 e7 ca be 36 42 3a 3d
       0.30204856 0.53157127 -0.3962943 0.0454733

438 f4 [64, 1, 3, 3]
000000 82 a9 48 be 1b 3e 82 be 07 da 3c be e8 57 4a be
       -0.19595912 -0.25438008 -0.18442546 -0.19760096
000010 8b 32 3f be 50 4c 41 bd b6 e2 ff 3d 06 ed 8f bf
       -0.18671624 -0.047191918 0.124944136 -1.1244209
000020 43 dc a2 be 2b 94 a6 bd 2c 74 6e 3f 2d 54 e1 3e
       -0.3180867 -0.081337295 0.93146014 0.44009534
000030 89 c6 98 3e 46 a6 b7 3d 63 69 b9 be 2d 96 f5 3e
       0.2983897 0.08967261 -0.36213216 0.47966138
000040 df 68 30 be ed e1 85 3c 26 bf bf 3d 82 c0 16 be
       -0.17227505 0.016343081 0.093626305 -0.14721873
000050 3b 5a 7c bc 60 fa 0a bf e1 db a3 bf fa e2 03 3f
       -0.015402372 -0.5428829 -1.2801477 0.51518214
000060 6b 6c 7e 3f 89 a8 84 3f 59 c0 85 3e 2f 99 df be
       0.9938418 1.0363933 0.26123312 -0.43671557
000070 e3 c0 84 bf 19 56 d9 be bc c5 c4 be 68 5e c4 3f
       -1.0371364 -0.424485 -0.3843211 1.534131
000080 da d3 13 3d 15 b2 2c bf c8 aa 68 be 09 08 33 3d
       0.03609071 -0.6745923 -0.22721398 0.043708835
000090 40 1c ef 3e 0a 68 74 3f a2 b0 29 bd 55 6f 60 be
       0.4670124 0.9547125 -0.041428216 -0.2191747
0000a0 8a d6 af bf 57 91 a4 bd 30 fa fe be 8e 52 08 be
       -1.3737347 -0.08035534 -0.49800253 -0.13312742
0000b0 2a 51 30 be f4 35 35 3f 54 fc 78 3f cf 3f c2 3e
       -0.17218462 0.7078545 0.9726002 0.37939307
0000c0 74 6c 6e bd d6 f0 3f 3c 20 eb c5 be c5 58 12 bf
       -0.058208898 0.011715135 -0.3865595 -0.571667
0000d0 8f 7e 62 bf 7e 64 1d bf 64 8a 4b bc 2b a5 d3 be
       -0.88474363 -0.61481464 -0.012423132 -0.4133695
0000e0 89 da 33 3d d1 1f bc be c6 39 86 be 5e c1 98 be
       0.043909583 -0.36743024 -0.26215953 -0.29835027
0000f0 71 ec 2b be 66 a0 e0 be 90 f4 72 be 91 7d 44 be
       -0.16789414 -0.43872374 -0.23726106 -0.19188525
000100 09 c7 22 3f c0 dd 31 3f 6d 54 c9 3e 48 03 ca 3e
       0.63584954 0.6947899 0.39322224 0.39455628
000110 b4 9e 85 3e 23 7f 10 3f 5e 67 4d 3e e9 d5 83 3d
       0.26097643 0.56443995 0.20058963 0.064372845
000120 7b 01 f3 3d be 6b ed 3d 4c 3a 9d be b6 2d b7 3e
       0.11865517 0.11592816 -0.3070854 0.35777062
000130 22 70 ee 3f 57 61 ca 3e d5 02 61 bf f1 0f 82 bf
       1.862797 0.3952739 -0.87894946 -1.0161115
000140 eb e0 4f be 56 1d c4 3e 41 3a 32 3e ca e4 75 3e
       -0.20300643 0.38303632 0.17405035 0.24013057
000150 dc a2 41 3e 5c 91 5f 3f 46 3b a8 3e 0a fe f0 3d
       0.18909782 0.87331176 0.32857722 0.11767204
000160 09 5d fb 3e ad e1 95 3c 0b 63 2d bf 2f 38 3c bf
       0.49094418 0.018296087 -0.6772925 -0.7352323
000170 83 a0 03 be 2d e9 59 3e 8a 72 60 bf 1a a6 2a 3a
       -0.12854199 0.21280356 -0.8767477 0.00065097364
000180 b4 8e 5d 3f 99 e8 88 3f cb e4 15 3f e2 0d 9d 3e
       0.8654587 1.0695983 0.58552235 0.30674654
000190 b8 02 61 be 38 ee 10 3d 28 87 2b 3e 74 3f 40 3e
       -0.21973693 0.035383433 0.16750777 0.18774205
0001a0 f2 43 2d 3e da c7 6c 3f b2 a8 c5 3e a7 8b 98 3d
       0.1692045 0.9249245 0.38605267 0.074485116
0001b0 2f 42 20 be e1 09 8d 3f 61 70 22 3f a0 4d 10 3f
       -0.15650247 1.101864 0.63452727 0.56368446
0001c0 19 f0 d0 3c 2c e1 5a bf 69 0e c0 3e 14 5d 30 bc
       0.025505112 -0.85499835 0.37510994 -0.010764379
0001d0 4e 06 be bd 24 de 3e 3e bb 42 cc be f8 60 40 3e
       -0.09278546 0.18639427 -0.3989466 0.1878699
0001e0 5e 17 69 be 08 55 d8 be 52 08 a5 be 2c 7d 8c bd
       -0.2276282 -0.42252374 -0.3223291 -0.06859812
0001f0 81 43 25 bf 11 8d 34 be 0b 8b 2c be 4e 17 73 3e
       -0.6455613 -0.17631938 -0.16849916 0.23739359
000200 db 26 ab 3c 0a 20 7d bd f9 d3 fb be b7 7a 80 be
       0.020892551 -0.061798133 -0.4918516 -0.25093624
000210 7e c3 c1 3f 05 2d 8d 3d 87 8e 82 3f b2 a6 06 3d
       1.5137784 0.068933524 1.0199746 0.032873817
000220 fa f3 ef 3d 33 56 7a 3d fe 80 d6 3e fe 6d 08 40
       0.11716457 0.061117362 0.41895288 2.1317134
000230 01 fa a4 be 56 01 e1 bd d8 05 04 bf d9 b5 a7 bd
       -0.32221988 -0.10986583 -0.51571417 -0.081889816
000240 3d 87 b0 be 68 ca de bf 80 04 8f bd 47 cd d9 bd
       -0.3447818 -1.740552 -0.0698328 -0.10634857
000250 e5 2f a5 3f 77 f9 41 3f b7 a8 bc be d0 ec 62 3f
       1.2905241 0.7577128 -0.3684747 0.886426
000260 23 af 9d 3f 16 2b e6 3e dc 3e b5 3e 52 ff 0e bf
       1.2319072 0.44954747 0.3539952 -0.5585834
000270 d2 1c 32 3f 1b 56 81 3e 04 09 27 bf 03 8d e8 3e
       0.69575226 0.25261006 -0.6524813 0.45420083
000280 d6 3e 6b b9 ae 6f 86 bf 00 16 00 3f c2 a9 f7 3d
       -0.00022434755 -1.0502832 0.5003357 0.120929256
000290 3c c8 b1 be 8f c5 86 3f 43 3b c3 bf aa 55 8a be
       -0.3472308 1.052904 -1.525246 -0.27018481
0002a0 ed 78 30 3f 2b 43 26 3f fe 1f 76 bb 8d 45 ca 3e
       0.6893452 0.6494624 -0.003755569 0.39506188
0002b0 87 ec 4d 3d 80 83 6f bf 0c 54 56 3f 80 ed 4f 3f
       0.0502744 -0.9356003 0.83721995 0.8122177
0002c0 90 b1 dd bf 1e 8e 8b be 84 eb 68 3f 1e cd 89 be
       -1.7319813 -0.27256864 0.9098437 -0.26914304
0002d0 dd e0 1e 3e 93 36 a5 3f 9f 6f a9 3e 4c 87 50 3f
       0.15515466 1.290728 0.33092973 0.81456447
0002e0 76 3b 36 3e 85 8b f4 be 7d 32 5d 3e 7b c2 55 bf
       0.1779612 -0.47762695 0.21601291 -0.8349988
0002f0 b2 3c 14 bf 19 6b 23 3f 7c ac f1 3d 8a 49 77 be
       -0.57905114 0.63835293 0.11800477 -0.24149147
000300 53 44 2c 3f 93 94 d7 be 9d 42 f3 be 98 56 3f 3f
       0.67291754 -0.4210554 -0.4751176 0.74741507
000310 05 1c d5 bd 04 20 88 be 4a 64 ff 3e 84 72 c8 be
       -0.10405735 -0.26586926 0.49881202 -0.39149868
000320 89 72 38 bf 79 d0 5a 3f e3 4e a1 3e b0 3f 40 bf
       -0.72049767 0.85474354 0.31505498 -0.7509718
000330 64 36 2a 3f b5 5e 99 3e 83 b7 e6 be 6d fb e3 bd
       0.66489244 0.29955068 -0.45061883 -0.1113194
000340 c8 8c 96 bd cd a6 f7 be 14 fd 2f 3e 49 a8 09 be
       -0.07351071 -0.48369446 0.17186385 -0.13443102
000350 5a b1 e6 be 80 aa 96 be f3 d4 36 bf 8a b1 34 3e
       -0.45057184 -0.29426956 -0.71418685 0.17645851
000360 c1 ab ac be eb 10 c9 be 97 e7 90 3c de 6f 95 be
       -0.33724788 -0.3927072 0.017688556 -0.2918691
000370 58 c3 3e bf b0 be ee be fb a1 ea bd 9f 6b 6d be
       -0.7451682 -0.46629858 -0.114566766 -0.23185585
000380 48 95 80 be 8d b1 72 bf 22 25 07 3f 08 65 db 3e
       -0.25113893 -0.9480217 0.52791035 0.42850518
000390 d6 c1 8b bf e3 e2 e0 bd 47 73 22 3e c3 bd 18 be
       -1.0918529 -0.10980775 0.15864287 -0.14916138
0003a0 c7 55 d9 3e f9 f1 8a 3c 1d e4 0b 3e 6b 9f 4a 3e
       0.42448255 0.016961085 0.13661237 0.19787376
0003b0 ee c2 fc 3c 3b 44 a9 3e 57 65 7b 3e 9b fa 10 3e
       0.030854668 0.33059868 0.24550377 0.14158098
0003c0 87 26 da 3e f5 d8 f2 3e 9b 66 94 3e f1 70 82 3e
       0.4260752 0.4743115 0.28984532 0.25476792
0003d0 5a 82 39 3d 74 45 91 3e 2f d4 28 3e 05 fa f2 3e
       0.04529033 0.283733 0.16487192 0.47456375
0003e0 0b 06 9a 3d 78 1b 52 3f 2c 19 2c 3f 58 9d 1b 3f
       0.07520684 0.82073164 0.6722591 0.6078696
0003f0 d5 e4 b7 be e7 01 16 bf c9 e9 d5 be 2b 9f 97 3e
       -0.35916772 -0.5859665 -0.41779926 0.29613623

439 f4 [64]
000000 1c 08 de 3e 8e d9 06 3e 50 4f f2 3e ba 1f 37 3f
       0.43365562 0.13168928 0.47326136 0.71532786
000010 2b 8b 6f 3e 28 0e fc 3c e2 7b 61 3e ac 12 e3 3e
       0.23392932 0.030768469 0.22019914 0.44350183
000020 fd ad de bc ef 7d 6c bf d9 ce 83 3c 72 f7 e2 bc
       -0.027182573 -0.9237966 0.016089844 -0.027705882
000030 9e d7 b0 3d ab ce d1 3e 8d 50 4f 3e f7 97 10 be
       0.08634876 0.40977988 0.20245571 -0.1412047
000040 d2 c0 e5 bd 6e 47 0e bc 74 a1 7d 3e 82 15 3c be
       -0.11218418 -0.008684022 0.2476862 -0.1836758
000050 20 4f db 3d ee 68 7c 3e 52 43 90 3c 38 36 12 3f
       0.10708451 0.24649402 0.017610226 0.5711398
000060 c2 56 17 3f a4 ef d2 3d c4 e4 b9 3d 50 30 14 bf
       0.59116757 0.10299614 0.09076837 -0.5788622
000070 26 af b6 3e 08 e0 51 be 0a e3 3c 3e 6b be e9 3d
       0.35680503 -0.20495617 0.18445984 0.114132725
000080 1c 2d 25 be ca 52 7e 3e 70 3e f0 3c f5 ac 03 3f
       -0.16130489 0.24836269 0.029326648 0.51435786
000090 34 8a 07 3f f0 4e 7c bc 2e 21 f1 3e 6c 37 8e 3d
       0.52945256 -0.01539968 0.47095627 0.06944165
0000a0 74 cf 8e bd 43 27 b1 3d 94 e1 52 3e e1 b5 8f 3e
       -0.06973162 0.08650067 0.20593864 0.2806845
0000b0 f0 f7 a6 3e 9e 7c 29 be 90 02 bf bd cf d9 d8 3e
       0.32611036 -0.16551444 -0.09326661 0.42353675
0000c0 ae 15 f0 3d 84 59 09 3e 10 c4 2e be 68 76 94 bd
       0.11722885 0.13413054 -0.1706698 -0.07249147
0000d0 52 fe 82 3e 1e 9d 8b 3e 48 01 59 bd c3 0b ad be
       0.25584656 0.27268308 -0.052979738 -0.33798036
0000e0 43 44 b2 be 2a 89 76 3d 49 cc 4f 3e cd 27 73 3e
       -0.34817705 0.060189404 0.20292772 0.23745652
0000f0 6c 6c b5 3d 5b 38 16 be 50 e0 84 bb 76 e6 17 bd
       0.088585705 -0.14669935 -0.0040550604 -0.03708502
